models/svm_text_classifier.pth (torch, 481696 bytes, 2 tensors)

fc.weight f4 [24, 5000]
0	0xb5eda4db	-1.7705855e-06
1	0xbb6ff6b1	-0.0036615545
2	0xbb19ff06	-0.0023497953
3	0x392a748a	0.00016255878
4	0xb883e21c	-6.288683e-05
5	0x3808d1bd	3.262026e-05
6	0xbb84bea7	-0.004051048
7	0xba848b9a	-0.0010112405
8	0xba9296ab	-0.0011183819
9	0xbb2cf16e	-0.002638902
10	0xb9509268	-0.00019890966
11	0xb893e543	-7.0522095e-05
12	0x398e5b28	0.00027152267
13	0xb903663f	-0.00012531223
14	0xbab6523c	-0.0013910006
15	0xb91dc983	-0.00015047756
16	0xb91575fc	-0.000142537
17	0xbb0d3f78	-0.0021552723
18	0x37714848	1.4381549e-05
19	0xba4792cf	-0.0007613124
20	0xba3c610f	-0.0007186094
21	0xb685cc3c	-3.987485e-06
22	0xb9c79edf	-0.00038074606
23	0x389a63e0	7.3618954e-05
24	0xba8e600c	-0.0010862364
25	0xb91a1f36	-0.00014698211
26	0xbab8f056	-0.0014109712
27	0x3a9501bf	0.0011368318
28	0x3a3b84e4	0.0007153286
29	0x3a0f09c4	0.0005456472
30	0x3a674ac3	0.0008823091
31	0x3791c005	1.7374763e-05
32	0xba92d253	-0.0011201598
33	0x37613222	1.34227175e-05
34	0x38fbc412	0.000120051336
35	0xbabb2714	-0.0014278614
36	0xbab5bdbf	-0.0013865753
37	0xb73bf305	-1.1202651e-05
38	0xba33e527	-0.00068624545
39	0x393158b9	0.00016913087
40	0x38887603	6.506967e-05
41	0x38b252d6	8.503131e-05
42	0x387f2164	6.0827835e-05
43	0x39a74d8c	0.000319105
44	0xbafe9361	-0.0019422584
45	0x3348752d	4.66727e-08
46	0xba7a6b4a	-0.00095527305
47	0x3acf12e5	0.0015798478
48	0x349778b6	2.821377e-07
49	0x39e0bcd4	0.00042865297
50	0xbaa08df0	-0.0012249332
51	0x3793ae08	1.7604805e-05
52	0x3a377b25	0.0006999246
53	0x3abd92a5	0.0014463259
54	0xba0de4a4	-0.0005412793
55	0x35118bb5	5.422001e-07
56	0xb83fa8d6	-4.569519e-05
57	0x3907ac7e	0.00012938862
58	0xb876984f	-5.879282e-05
59	0xb767cfbc	-1.381704e-05
60	0x3a5375d2	0.0008066568
61	0x3a059e7c	0.00050971634
62	0xb9d922a1	-0.00041415266
63	0xba772c08	-0.00094288634
64	0xb99686e5	-0.00028710734
65	0xba788a66	-0.0009481072
66	0xb9caf1bb	-0.00038708546
67	0xba26fe68	-0.0006370307
68	0xb8846a59	-6.314059e-05
69	0xba8ee54e	-0.0010902078
70	0xba90b38f	-0.0011039841
71	0xbabc12a4	-0.0014348817
72	0xb8f0506e	-0.00011459073
73	0x3a5bf27c	0.000839032
74	0xba8107b6	-0.0009844217
75	0xba263bf2	-0.000634133
76	0xba9eed3c	-0.0012125145
77	0xba86a5b7	-0.0010272776
78	0xb99ffa0f	-0.0003051315
79	0xbb571a45	-0.0032822054
80	0xbb35f9db	-0.0027767334
81	0xbb34752e	-0.0027535665
82	0xbaeb3655	-0.0017945269
83	0xba837838	-0.0010030335
84	0x3a2f4dbc	0.00066873035
85	0xb981a951	-0.00024730948
86	0xb82e6ad9	-4.1584342e-05
87	0x3a460495	0.00075537834
88	0xba25d0f8	-0.0006325389
89	0xba2288f1	-0.00062002154
90	0x389f6a42	7.601503e-05
91	0x39777f21	0.00023603115
92	0x3a0a4890	0.0005275095
93	0xbb3d9f5b	-0.0028934095
94	0xbb466a08	-0.0030275602
95	0xbab9b079	-0.0014166973
96	0xb9c74ffb	-0.00038015828
97	0x399c3916	0.0002979717
98	0x38383039	4.391393e-05
99	0xba22ddab	-0.00062128407
100	0xb9bfb13e	-0.00036562415
101	0xbaec388c	-0.0018022223
102	0xbaf78573	-0.0018884375
103	0xbaa55b73	-0.0012615755
104	0xbabbff5f	-0.0014343074
105	0xba490754	-0.00076686335
106	0xb905b9b9	-0.00012753055
107	0xbab34d75	-0.00136797
108	0x37797169	1.4867962e-05
109	0xb9a3ea98	-0.0003126457
110	0x391a5840	0.0001471946
111	0xbaf3c736	-0.0018598798
112	0x39b0e07b	0.00033736587
113	0xbb160586	-0.0022891476
114	0xba12c3f1	-0.00055986556
115	0xbaacd03a	-0.0013184615
116	0x381ab888	3.688832e-05
117	0xbaf7c6d2	-0.0018903858
118	0x3a5d7abe	0.0008448771
119	0x38c48a7b	9.371802e-05
120	0xbadccb89	-0.0016845326
121	0x37ed6684	2.830034e-05
122	0x38121a01	3.483333e-05
123	0xb89504df	-7.105781e-05
124	0x392db920	0.0001656753
125	0x3a5ccf6f	0.0008423244
126	0x3a23d3ed	0.0006249536
127	0xb7d077b8	-2.485128e-05
128	0x38b11ede	8.445767e-05
129	0x38d5038f	0.00010157294
130	0xb9dcafec	-0.00042092742
131	0xb959c792	-0.00020769078
132	0xbb204e87	-0.0024460868
133	0x3a9a8705	0.0011789507
134	0x36f1e3b2	7.208867e-06
135	0x39033f52	0.00012516722
136	0x399d1c2f	0.00029966372
137	0xba5ffe18	-0.0008544638
138	0x3919ebe0	0.00014679087
139	0xb8926045	-6.979754e-05
140	0xba146c9b	-0.00056619354
141	0xb4dd1642	-4.1180652e-07
142	0xba05484f	-0.0005084322
143	0xb9e48fe0	-0.00043594744
144	0x3b07d338	0.0020725261
145	0x397b0ad3	0.00023941258
146	0xb728a71d	-1.0052489e-05
147	0x39aea328	0.00033309427
148	0x37e12514	2.6839356e-05
149	0x37cf0633	2.467921e-05
150	0xb9c012d6	-0.00036635128
151	0xba6e2e1e	-0.00090858515
152	0x383a7469	4.445427e-05
153	0xbb40adea	-0.0029400536
154	0xb9cf6f35	-0.00039564972
155	0xbae9efb0	-0.0017847922
156	0xb855b581	-5.0952196e-05
157	0xb9fb3bc6	-0.00047918985
158	0xb9ea8d0e	-0.00044737052
159	0xbad1cf8c	-0.0016007288
160	0xb9122b97	-0.00013939884
161	0xbaea90a3	-0.0017895888
162	0x3a13c764	0.00056373165
163	0xb46422e0	-2.1246842e-07
164	0x3a0b039d	0.00053029676
165	0xba1feffd	-0.00061011297
166	0xb8325789	-4.252003e-05
167	0xb8c7216a	-9.495283e-05
168	0xb95bf5fa	-0.00020977101
169	0xb9bfda24	-0.00036592886
170	0x39edd96e	0.0004536616
171	0x3a2f4cb3	0.0006687149
172	0xba8e5b46	-0.0010860942
173	0x3a4a5e7e	0.0007719769
174	0xba7f26b8	-0.00097332476
175	0xbae5a949	-0.0017521764
176	0xb89b5972	-7.4076364e-05
177	0x35c76e38	1.4858733e-06
178	0x3ac378d3	0.0014913328
179	0xb709c7ef	-8.212387e-06
180	0x39864b25	0.0002561446
181	0x35fbca29	1.8759794e-06
182	0x3918e678	0.00014581706
183	0xb838f806	-4.410001e-05
184	0x3a4112d5	0.0007365172
185	0xb8b37ce0	-8.558645e-05
186	0xba4804e1	-0.00076301215
187	0xba73ec6c	-0.0009304944
188	0xb79437e9	-1.766901e-05
189	0xbbefdb7a	-0.007319865
190	0xbae55543	-0.0017496723
191	0x3687b47c	4.0443247e-06
192	0x3943d39f	0.00018675484
193	0xb91b0248	-0.00014782802
194	0xbabd0d6d	-0.0014423557
195	0x3986c2e6	0.00025703682
196	0xba20bf88	-0.0006132056
197	0xba88222d	-0.0010386162
198	0x374da1ee	1.2256654e-05
199	0xba14dae2	-0.0005678368
200	0xbb03667a	-0.0020050094
201	0xb8d10255	-9.966331e-05
202	0xbb31d3c4	-0.0027134279
203	0x39eaeb2e	0.0004480718
204	0x3a04fb44	0.0005072842
205	0xbaa1670a	-0.0012314033
206	0xba56d941	-0.00081958255
207	0x3a25b40e	0.0006321081
208	0x3a1a27d4	0.00058805686
209	0xba9b89b6	-0.0011866603
210	0xba6d84f7	-0.0009060646
211	0xb9213ad8	-0.00015376077
212	0x3a7472bc	0.0009324958
213	0x398204f6	0.00024799228
214	0x39844296	0.00025226612
215	0x3a1fe1d5	0.000609902
216	0xb9fe2b9e	-0.00048479153
217	0xb9f69104	-0.0004702882
218	0xb9ad79c7	-0.00033087863
219	0x393f8e39	0.00018268162
220	0xbabb6972	-0.0014298393
221	0xba86838b	-0.0010262592
222	0xb8bfe91d	-9.1510105e-05
223	0xba8a9c3c	-0.0010575126
224	0x377396aa	1.4519008e-05
225	0xbacc7f40	-0.0015601888
226	0xb9d33484	-0.00040284183
227	0xba25a826	-0.00063193066
228	0xbac57af4	-0.001506655
229	0xba311221	-0.00067547156
230	0x38bd5195	9.027418e-05
231	0x3965499c	0.00021866563
232	0xb88c32a6	-6.685154e-05
233	0x3ab09ff1	0.0013475401
234	0xbac411b6	-0.0014958892
235	0xbab0f2c2	-0.0013500082
236	0x38321108	4.245437e-05
237	0xba1c5903	-0.00059641915
238	0xba22e0a9	-0.00062132865
239	0xbb3492c5	-0.0027553302
240	0x35c76e38	1.4858733e-06
241	0xba9ff69e	-0.0012204235
242	0x35d6d6be	1.6006741e-06
243	0x39d4937b	0.00040545673
244	0x3a1518ee	0.0005687614
245	0xbb72fa90	-0.0037075616
246	0x38ad8bc2	8.275315e-05
247	0xbac37a2d	-0.001491373
248	0x386a724c	5.5896395e-05
249	0xb9709695	-0.0002294428
250	0xba530d3c	-0.00080509833
251	0xbaaacd3f	-0.0013031139
252	0xb97bea3e	-0.00024024487
253	0xb9846eba	-0.000252595
254	0xba60ec92	-0.00085801736
255	0x3a01915b	0.0004942619

fc.bias f4 [24]
0	0xbf4ebc3e	-0.80755985
1	0xbedcabc1	-0.43099788
2	0xbf530a6d	-0.82437783
3	0xbf2df744	-0.6795542
4	0xbf1e6b6b	-0.61882657
5	0xbf304934	-0.688617
6	0x3f4ea58f	0.8072137
7	0x3f6f314d	0.934346
8	0x3f71e56f	0.9449071
9	0x3f8ab2f8	1.0835867
10	0x404202a0	3.0314102
11	0x3f4f5b74	0.8099892
12	0xbc814bcf	-0.015783219
13	0xbf5120af	-0.81690496
14	0xbf5139e9	-0.8172899
15	0xbf1798f5	-0.5921777
16	0xbf5292dd	-0.82255346
17	0x3f9604e0	1.1720238
18	0x3f895157	1.0727948
19	0x3e989067	0.2979767
20	0xbf52a854	-0.822881
21	0xbf4a74c6	-0.7908443
22	0xbf3fc997	-0.74916977
23	0xbf35be16	-0.70993173
